…
15:05:15 INFO - logger_setup: /home/pducanh/Desktop/High-Fidelity-Generative-Image-Compression/src
15:05:15 INFO - <module>: Using device cpu
15:05:16 INFO - __init__: GAN mode enabled. Training discriminator for 1 steps.
15:05:37 INFO - logger_setup: /home/pducanh/Desktop/High-Fidelity-Generative-Image-Compression/src
15:05:37 INFO - <module>: Using device cpu
15:05:38 INFO - __init__: GAN mode enabled. Training discriminator for 1 steps.
15:05:39 INFO - <module>: HIFICModel(
  (Encoder): Encoder(
    (net): Sequential(
      (0): Sequential(
        (0): ReflectionPad2d((3, 3, 3, 3))
        (1): Conv2d(3, 60, kernel_size=(7, 7), stride=(1, 1))
        (2): ChannelNorm2D()
        (3): ReLU()
      )
      (1): Sequential(
        (0): ReflectionPad2d((1, 1, 1, 1))
        (1): Conv2d(60, 120, kernel_size=(3, 3), stride=(2, 2), padding_mode=reflect)
        (2): ChannelNorm2D()
        (3): ReLU()
      )
      (2): Sequential(
        (0): ReflectionPad2d((1, 1, 1, 1))
        (1): Conv2d(120, 240, kernel_size=(3, 3), stride=(2, 2), padding_mode=reflect)
        (2): ChannelNorm2D()
        (3): ReLU()
      )
      (3): Sequential(
        (0): ReflectionPad2d((1, 1, 1, 1))
        (1): Conv2d(240, 480, kernel_size=(3, 3), stride=(2, 2), padding_mode=reflect)
        (2): ChannelNorm2D()
        (3): ReLU()
      )
      (4): Sequential(
        (0): ReflectionPad2d((1, 1, 1, 1))
        (1): Conv2d(480, 960, kernel_size=(3, 3), stride=(2, 2), padding_mode=reflect)
        (2): ChannelNorm2D()
        (3): ReLU()
      )
      (5): Sequential(
        (0): ReflectionPad2d((1, 1, 1, 1))
        (1): Conv2d(960, 220, kernel_size=(3, 3), stride=(1, 1))
      )
    )
  )
  (Generator): Generator(
    (first_conv_block): Sequential(
      (0): ChannelNorm2D()
      (1): ReflectionPad2d((1, 1, 1, 1))
      (2): Conv2d(220, 960, kernel_size=(3, 3), stride=(1, 1))
      (3): ChannelNorm2D()
    )
    (residual_block0): ResidualBlock(
      (pad): ReflectionPad2d((1, 1, 1, 1))
      (conv1): Conv2d(960, 960, kernel_size=(3, 3), stride=(1, 1))
      (norm1): ChannelNorm2D()
      (conv2): Conv2d(960, 960, kernel_size=(3, 3), stride=(1, 1))
      (norm2): ChannelNorm2D()
    )
    (residual_block1): ResidualBlock(
      (pad): ReflectionPad2d((1, 1, 1, 1))
      (conv1): Conv2d(960, 960, kernel_size=(3, 3), stride=(1, 1))
      (norm1): ChannelNorm2D()
      (conv2): Conv2d(960, 960, kernel_size=(3, 3), stride=(1, 1))
      (norm2): ChannelNorm2D()
    )
    (residual_block2): ResidualBlock(
      (pad): ReflectionPad2d((1, 1, 1, 1))
      (conv1): Conv2d(960, 960, kernel_size=(3, 3), stride=(1, 1))
      (norm1): ChannelNorm2D()
      (conv2): Conv2d(960, 960, kernel_size=(3, 3), stride=(1, 1))
      (norm2): ChannelNorm2D()
    )
    (residual_block3): ResidualBlock(
      (pad): ReflectionPad2d((1, 1, 1, 1))
      (conv1): Conv2d(960, 960, kernel_size=(3, 3), stride=(1, 1))
      (norm1): ChannelNorm2D()
      (conv2): Conv2d(960, 960, kernel_size=(3, 3), stride=(1, 1))
      (norm2): ChannelNorm2D()
    )
    (residual_block4): ResidualBlock(
      (pad): ReflectionPad2d((1, 1, 1, 1))
      (conv1): Conv2d(960, 960, kernel_size=(3, 3), stride=(1, 1))
      (norm1): ChannelNorm2D()
      (conv2): Conv2d(960, 960, kernel_size=(3, 3), stride=(1, 1))
      (norm2): ChannelNorm2D()
    )
    (residual_block5): ResidualBlock(
      (pad): ReflectionPad2d((1, 1, 1, 1))
      (conv1): Conv2d(960, 960, kernel_size=(3, 3), stride=(1, 1))
      (norm1): ChannelNorm2D()
      (conv2): Conv2d(960, 960, kernel_size=(3, 3), stride=(1, 1))
      (norm2): ChannelNorm2D()
    )
    (residual_block6): ResidualBlock(
      (pad): ReflectionPad2d((1, 1, 1, 1))
      (conv1): Conv2d(960, 960, kernel_size=(3, 3), stride=(1, 1))
      (norm1): ChannelNorm2D()
      (conv2): Conv2d(960, 960, kernel_size=(3, 3), stride=(1, 1))
      (norm2): ChannelNorm2D()
    )
    (residual_block7): ResidualBlock(
      (pad): ReflectionPad2d((1, 1, 1, 1))
      (conv1): Conv2d(960, 960, kernel_size=(3, 3), stride=(1, 1))
      (norm1): ChannelNorm2D()
      (conv2): Conv2d(960, 960, kernel_size=(3, 3), stride=(1, 1))
      (norm2): ChannelNorm2D()
    )
    (residual_block8): ResidualBlock(
      (pad): ReflectionPad2d((1, 1, 1, 1))
      (conv1): Conv2d(960, 960, kernel_size=(3, 3), stride=(1, 1))
      (norm1): ChannelNorm2D()
      (conv2): Conv2d(960, 960, kernel_size=(3, 3), stride=(1, 1))
      (norm2): ChannelNorm2D()
    )
    (up_sample0): Sequential(
      (0): ConvTranspose2d(960, 480, kernel_size=(3, 3), stride=(2, 2), padding=(1, 1), output_padding=(1, 1))
      (1): ChannelNorm2D()
      (2): ReLU()
    )
    (up_sample1): Sequential(
      (0): ConvTranspose2d(480, 240, kernel_size=(3, 3), stride=(2, 2), padding=(1, 1), output_padding=(1, 1))
      (1): ChannelNorm2D()
      (2): ReLU()
    )
    (up_sample2): Sequential(
      (0): ConvTranspose2d(240, 120, kernel_size=(3, 3), stride=(2, 2), padding=(1, 1), output_padding=(1, 1))
      (1): ChannelNorm2D()
      (2): ReLU()
    )
    (up_sample3): Sequential(
      (0): ConvTranspose2d(120, 60, kernel_size=(3, 3), stride=(2, 2), padding=(1, 1), output_padding=(1, 1))
      (1): ChannelNorm2D()
      (2): ReLU()
    )
    (last_conv_block): Sequential(
      (0): ReflectionPad2d((3, 3, 3, 3))
      (1): Conv2d(60, 3, kernel_size=(7, 7), stride=(1, 1))
    )
  )
  (Hyperprior): Hyperprior(
    (analysis_net): HyperpriorAnalysis(
      (conv1): Conv2d(220, 320, kernel_size=(3, 3), stride=(1, 1), padding=(1, 1))
      (conv2): Conv2d(320, 320, kernel_size=(5, 5), stride=(2, 2), padding=(2, 2), padding_mode=reflect)
      (conv3): Conv2d(320, 320, kernel_size=(5, 5), stride=(2, 2), padding=(2, 2), padding_mode=reflect)
    )
    (synthesis_mu): HyperpriorSynthesis(
      (conv1): ConvTranspose2d(320, 320, kernel_size=(5, 5), stride=(2, 2), padding=(2, 2), output_padding=(1, 1))
      (conv2): ConvTranspose2d(320, 320, kernel_size=(5, 5), stride=(2, 2), padding=(2, 2), output_padding=(1, 1))
      (conv3): ConvTranspose2d(320, 220, kernel_size=(3, 3), stride=(1, 1), padding=(1, 1))
    )
    (synthesis_std): HyperpriorSynthesis(
      (conv1): ConvTranspose2d(320, 320, kernel_size=(5, 5), stride=(2, 2), padding=(2, 2), output_padding=(1, 1))
      (conv2): ConvTranspose2d(320, 320, kernel_size=(5, 5), stride=(2, 2), padding=(2, 2), output_padding=(1, 1))
      (conv3): ConvTranspose2d(320, 220, kernel_size=(3, 3), stride=(1, 1), padding=(1, 1))
    )
    (hyperlatent_likelihood): HyperpriorDensity()
  )
  (Discriminator): Discriminator(
    (context_conv): Conv2d(220, 12, kernel_size=(3, 3), stride=(1, 1), padding=(1, 1), padding_mode=reflect)
    (context_up_sample): Upsample(scale_factor=16.0, mode=nearest)
    (context_activation): LeakyReLU(negative_slope=0.2)
    (conv1): Conv2d(15, 64, kernel_size=(4, 4), stride=(2, 2), padding=(1, 1), padding_mode=reflect)
    (activation1): LeakyReLU(negative_slope=0.2)
    (conv2): Conv2d(64, 128, kernel_size=(4, 4), stride=(2, 2), padding=(1, 1), padding_mode=reflect)
    (activation2): LeakyReLU(negative_slope=0.2)
    (conv3): Conv2d(128, 256, kernel_size=(4, 4), stride=(2, 2), padding=(1, 1), padding_mode=reflect)
    (activation3): LeakyReLU(negative_slope=0.2)
    (conv4): Conv2d(256, 512, kernel_size=(4, 4), stride=(2, 2), padding=(1, 1), padding_mode=reflect)
    (activation4): LeakyReLU(negative_slope=0.2)
    (conv_out): Conv2d(512, 1, kernel_size=(1, 1), stride=(1, 1))
  )
  (squared_difference): MSELoss()
  (perceptual_loss): PerceptualLoss()
)
15:05:39 INFO - <module>: ALL PARAMETERS
15:05:39 INFO - <module>: Encoder.net.0.1.weight - torch.Size([60, 3, 7, 7])
15:05:39 INFO - <module>: Encoder.net.0.1.bias - torch.Size([60])
15:05:39 INFO - <module>: Encoder.net.0.2.gamma - torch.Size([1, 60, 1, 1])
15:05:39 INFO - <module>: Encoder.net.0.2.beta - torch.Size([1, 60, 1, 1])
…
